modello_py/tap_model_weights.pth (torch, 105881 bytes, 8 tensors)

conv1.weight f4 [32, 3, 3]
0	0xbf6e5138	-0.9309268
1	0xbedc16ea	-0.42986232
2	0xbf973427	-1.1812791
3	0xbdbf4a72	-0.09340371
4	0x3e96aacc	0.29427183
5	0xbe8658a6	-0.26239508
6	0x3e4195a0	0.18904734
7	0x3e14cfd8	0.14532411
8	0xbdc75bcb	-0.09734305
9	0x3f681e63	0.90671366
10	0x3eb18d72	0.34678227
11	0x3f48f2d6	0.7849554
12	0xbedab5ac	-0.4271673
13	0xbf363bf9	-0.7118526
14	0x3e73fb54	0.23826343
15	0x3dd553b6	0.10416357
16	0xbe62f2d3	-0.22162943
17	0x3e399ef6	0.18127045
18	0x3ca4fe80	0.020140886
19	0xbdc3ad96	-0.09554593
20	0x3e8e5fb6	0.27807397
21	0x3e8fa23a	0.28053457
22	0xbdc26030	-0.094910026
23	0xbea1aeae	-0.31578583
24	0xbe9c7348	-0.30556703
25	0x3e43e766	0.1913124
26	0xbd2f64c0	-0.042820692
27	0x3fba3d58	1.4549971
28	0x3fe9e095	1.8271662
29	0x3fd4c2df	1.662197
30	0x3f04ba6b	0.5184695
31	0x3f694c69	0.9113222
32	0x3e9ca2f8	0.30593085
33	0xbdaf68cb	-0.085649095
34	0xbe16191b	-0.14658014
35	0xbe90f6e7	-0.28313372
36	0xbf59fb6f	-0.8514928
37	0xbf96f90c	-1.1794753
38	0xbfa499c4	-1.2859426
39	0xbf1dd4bd	-0.6165274
40	0xbf824c6f	-1.0179576
41	0xbe98128f	-0.2970166
42	0x3e1326a8	0.14370215
43	0x3e0eb32b	0.13935535
44	0xbea7548c	-0.32681692
45	0xbdaccf60	-0.08437991
46	0xbf7b469d	-0.9815462
47	0xbed78df5	-0.42100492
48	0x3e867acc	0.26265562
49	0xbf547dc9	-0.8300443
50	0x3f5466d7	0.8296942
51	0xbd02f420	-0.031971097
52	0xbdd992cb	-0.10623702
53	0xbe6ebfd3	-0.23315363
54	0x3ec49f9a	0.38403016
55	0x3f21565b	0.63022393
56	0x3f54b637	0.8309054
57	0xbf87c95a	-1.0608323
58	0xbea1f4d4	-0.31632102
59	0x3f1021b2	0.56301415
60	0xbe61efc8	-0.22064126
61	0xbe89b293	-0.26894054
62	0xbe05be08	-0.13060772
63	0xbf4144ef	-0.7549581
64	0xbf33c97d	-0.7022932
65	0xbfaee22c	-1.3662772
66	0xbf0c0e49	-0.547093
67	0xbf073a44	-0.5282328
68	0xbee86906	-0.45392627
69	0xbe5e2718	-0.216946
70	0x3df8770b	0.12132081
71	0x3ca0c600	0.019625664
72	0x3f732e9a	0.94992983
73	0x3f3c64fa	0.7359158
74	0x3f43069e	0.7618197
75	0xbecf03ad	-0.40432492
76	0xbf119136	-0.568622
77	0x3e9dbd89	0.30808666
78	0xbe2d938b	-0.16950814
79	0x3e3487f6	0.1762999
80	0x3e50f6e6	0.20406684
81	0x3f83d3a2	1.029896
82	0x3f27742a	0.6541163
83	0x3f3c28dd	0.7349985
84	0xbf2a46a4	-0.6651404
85	0xbf23e450	-0.6402025
86	0x3f10464c	0.56357265
87	0x3e6621a3	0.22473769
88	0x3d1ff82b	0.03905503
89	0xbb705cab	-0.0036676328
90	0xbf340cfa	-0.703323
91	0xbf5a46e8	-0.85264444
92	0xbf90f7ac	-1.1325583
93	0x3ead5d52	0.3386026
94	0xbe0ab4d3	-0.13545541
95	0xbed375b0	-0.41300726
96	0x3e1f83fb	0.1557769
97	0x3e870e8c	0.26378286
98	0xbd87b0cb	-0.066255175
99	0xbea1dddb	-0.31614575
100	0xbe77d976	-0.24204049
101	0x3ea4a4c6	0.32156962
102	0xbbf542ab	-0.007484754
103	0xbe44247e	-0.19154546
104	0x3e62476e	0.22097561
105	0x3d98b480	0.07456303
106	0xbe14d593	-0.14534597
107	0x3e703838	0.23458946
108	0xbfdef341	-1.7417985
109	0xbf067a99	-0.5253082
110	0xbfa964c6	-1.3233879
111	0xbf8845df	-1.0646323
112	0x3f2b3d84	0.6689074
113	0xbf39ab16	-0.7252668
114	0x3e36028b	0.17774408
115	0xbe4b9ade	-0.19883296
116	0xbe86ed1e	-0.2635278
117	0xbe54da80	-0.20786476
118	0xbea3d047	-0.3199484
119	0xbedd8b82	-0.432705
120	0x3e41cdf7	0.18926226
121	0xbf393dfe	-0.7236022
122	0x3f36172e	0.7112912
123	0xbe742870	-0.2384355
124	0xbdd6f0c6	-0.10495143
125	0x3ea4e10e	0.32202953
126	0x3f85d7bd	1.0456463
127	0x3f953790	1.1657581
128	0x3fb36cfd	1.4017636
129	0x3e9626c7	0.2932646
130	0x3ee52d43	0.44761094
131	0xbecda64a	-0.4016593
132	0x3e8a547f	0.2701759
133	0xbd9923eb	-0.07477554
134	0x3e5e0506	0.21681604
135	0x3dc7720a	0.09738548
136	0xbf3f63d8	-0.74761724
137	0x3dade99f	0.08491825
138	0xbe97f6bc	-0.2968043
139	0xbf25b99a	-0.6473633
140	0x3e2e8fc1	0.17047025
141	0xbbb70a00	-0.005585909
142	0x3e3cc578	0.18434703
143	0x3e9b5fff	0.30346677
144	0x3ed0c555	0.40775552
145	0xbec79157	-0.38978073
146	0x3e526256	0.20545325
147	0xbdb0b89f	-0.08628964
148	0xbe5f9761	-0.2183509
149	0x3e447237	0.19184195
150	0x3e3a716e	0.18207332
151	0x3e7943db	0.24342291
152	0x3bf4da56	0.0074723167
153	0xbf43eda5	-0.7653449
154	0xbe4826af	-0.19546007
155	0xbf4a6dc9	-0.7907377
156	0x3e33de07	0.17565165
157	0x3f3ed40d	0.74542314
158	0xbf3eb6c2	-0.74497616
159	0xbe8186d8	-0.2529819
160	0xbe67d7c6	-0.22640905
161	0xbe78f4cb	-0.24312131
162	0xbc7baa00	-0.015360355
163	0xbe3b330b	-0.1828119
164	0xbe12247e	-0.14271733
165	0x3db83a1b	0.08995458
166	0xbd961650	-0.073284745
167	0xbdf877d6	-0.12132232
168	0xbe8902a4	-0.26759827
169	0x3e0380b3	0.12842064
170	0xbe438946	-0.19095334
171	0x3e494200	0.19654083
172	0xbdf2b69b	-0.118512355
173	0xbe2a7630	-0.16646647
174	0xbe5adf4e	-0.21374246
175	0x3e9bbe13	0.30418453
176	0xbd7cc800	-0.061714172
177	0x3e3a7670	0.18209243
178	0x3d0c6bf6	0.034282647
179	0xbde840e0	-0.11340499
180	0xbd779a36	-0.0604498
181	0xbc51c380	-0.0128029585
182	0x3e60c93b	0.21951763
183	0xbdfff546	-0.12497954
184	0x3ea5ba60	0.32368755
185	0xbe867fca	-0.2626937
186	0xbe05d208	-0.13068402
187	0xbde13fd6	-0.10998504
188	0x3e92a98f	0.28644988
189	0xbd941f49	-0.0723253
190	0x3f10d16d	0.5656956
191	0x3cc7cac3	0.024388677
192	0xbaf9dcef	-0.0019063036
193	0x3d607498	0.054798692
194	0xbdcfd3f4	-0.10147849
195	0x3dcef2b0	0.10104883
196	0x3c985d16	0.018599074
197	0x3e75945e	0.23982379
198	0xbeaf3cbd	-0.34226027
199	0xbf4b5612	-0.7942821
200	0xbf998c6c	-1.1995978
201	0x3ea83979	0.32856348
202	0xbf2519bb	-0.64492387
203	0xbf4a04e9	-0.7891374
204	0xbe8dc030	-0.2768569
205	0x3ea5210a	0.3225177
206	0x3afcd956	0.0019290845
207	0x3fa75cc1	1.3075181
208	0x3f3ea9b3	0.7447769
209	0xbf5d2073	-0.8637764
210	0xbe808c77	-0.25107166
211	0xbf4eb69f	-0.8074741
212	0xbf94a6ee	-1.1613443
213	0xbd80ed66	-0.0629528
214	0x3dcbe056	0.09954898
215	0xbea59f4a	-0.3234809
216	0xbe9155b8	-0.2838571
217	0x3efd9af5	0.49532285
218	0x3f2c3f6e	0.67284286
219	0x3f54af71	0.830802
220	0x3ecdddaa	0.4020818
221	0x3f534fdb	0.82543725
222	0xbe9bc882	-0.30426413
223	0x3e2c2623	0.16811423
224	0x3dc1dd8b	0.09466084
225	0x3e6e206e	0.23254558
226	0x3e986790	0.29766512
227	0x3d475d16	0.048672758
228	0xbdf5d2ab	-0.12003072
229	0xbe6a4bf8	-0.22880542
230	0xbe80900e	-0.25109905
231	0xbbedb656	-0.007254402
232	0xbbdba8ab	-0.0067034564
233	0xbea69536	-0.32535714
234	0x3e1ed416	0.15510592
235	0x3dd5aa66	0.104328915
236	0xbea09220	-0.31361485
237	0xbe5968d3	-0.21231394
238	0x3da75a90	0.0817157
239	0x3d9be740	0.07612467
240	0xbe20d5f3	-0.15706615
241	0x3e0f933b	0.14021008
242	0x3e32962b	0.17440097
243	0xbf271d5b	-0.6527917
244	0xbe75bf60	-0.23998785
245	0xbf27f2e9	-0.65605026
246	0xbf1a05b3	-0.60164946
247	0x3e922cdd	0.28549853
248	0xbf2fe178	-0.68703413
249	0x3db9971b	0.09062024
250	0x3e3d63b3	0.18495063
251	0xbe50c660	-0.20388174
252	0x3f8e442e	1.1114557
253	0x3fa3b41d	1.2789341
254	0x3fbd803f	1.4804763
255	0x3dcd4dcc	0.10024604

conv1.bias f4 [32]
0	0xba668662	-0.00087938283
1	0xbb12aaa8	-0.002237955
2	0xbe8106f3	-0.25200614
3	0x3deb34aa	0.11484654
4	0xba806694	-0.0009796196
5	0x3d3c00ee	0.045899324
6	0xb9cc746e	-0.0003899666
7	0x3e376ed7	0.17913376
8	0xbb477181	-0.0030432644
9	0xbb5bb1e0	-0.003352277
10	0xb9d09de3	-0.00039790486
11	0xbe40231b	-0.18763392
12	0x3e02d2c7	0.12775718
13	0x3e78663e	0.24257752
14	0xb9fe3654	-0.00048487133
15	0x3df6311d	0.12021086
16	0x3e3a9452	0.18220642
17	0xbacc9c74	-0.0015610592
18	0xbe11ae88	-0.14226735
19	0xbe5b08b6	-0.21390042
20	0xbe95e974	-0.29279673
21	0x3e6812ad	0.22663374
22	0x3ae29800	0.0017287731
23	0xbbb9c6d5	-0.0056694546
24	0x3e4439ae	0.19162628
25	0xbd948966	-0.07252769
26	0xbe16525e	-0.14679858
27	0x3e259818	0.161713
28	0x3e887939	0.26654986
29	0x3afe0848	0.001938113
30	0xbe7194b0	-0.23591876
31	0x3e259c45	0.16172893

lstm.weight_ih_l0 f4 [256, 32]
0	0xbd76e719	-0.060278986
1	0x3f121150	0.57057667
2	0xbdc3aed2	-0.09554829
3	0x3e572892	0.2101157
4	0xbe584ed8	-0.21123827
5	0x3e2fc8bf	0.17166422
6	0x3f149455	0.58038837
7	0x3e1f18da	0.15536824
8	0x3f40203e	0.750492
9	0x3f1b7ee4	0.60740495
10	0xbcc53d61	-0.02407712
11	0xbdb76f7c	-0.08956811
12	0x3e388cf1	0.18022515
13	0x3d0803d5	0.03320678
14	0x3e97c570	0.2964282
15	0xbcef8853	-0.02923981
16	0x3e4aae8e	0.1979315
17	0x3c884b41	0.016637446
18	0x3ca72350	0.02040258
19	0xbd703950	-0.058648407
20	0x3d35be54	0.044370964
21	0x3d7d4b68	0.06183949
22	0xbdb649b2	-0.08900775
23	0xbd27e3d9	-0.040988777
24	0xbca9b49f	-0.02071601
25	0xbd90c72a	-0.070692375
26	0xbdd8053a	-0.10547872
27	0x3dc00478	0.09375852
28	0x3d80a862	0.062821165
29	0x3d94fa68	0.07274324
30	0xbd404bfc	-0.046947464
31	0x3e65afca	0.2243034
32	0xbe6238c0	-0.22091961
33	0x3f18c102	0.59669507
34	0xbc681760	-0.014165729
35	0x3dff398e	0.124621496
36	0xbef33591	-0.47501805
37	0xbd12b4bb	-0.03581689
38	0x3e949081	0.29016498
39	0x3da9392b	0.08262857
40	0x3ebc9b1d	0.36837092
41	0x3ef7118a	0.4825557
42	0xbe591060	-0.21197653
43	0x3cff5f80	0.031173468
44	0x3dc5e90b	0.0966359
45	0x3e68cbe1	0.22734024
46	0x3f104065	0.5634826
47	0x3db44f3a	0.08804174
48	0x3e2e6141	0.17029287
49	0xbe6d6e43	-0.23186593
50	0xba4e8800	-0.0007878542
51	0x3cbe1100	0.023201466
52	0x3dbfe09a	0.09369011
53	0x3e6b9956	0.23007712
54	0xbebaf646	-0.36516017
55	0x3f7537bf	0.95788187
56	0x3e87d008	0.26525903
57	0x3b366340	0.0027830154
58	0xbd02f19c	-0.031968698
59	0x3d3cd1bf	0.046098467
60	0x3e6d3c96	0.23167643
61	0x3f3ede28	0.74557734
62	0xbd10ab00	-0.03531933
63	0x3e3d7141	0.18500234
64	0x3fbabc73	1.458876
65	0xbdbc6527	-0.09198981
66	0xbcbd40e8	-0.023102239
67	0x3d2590b7	0.040421214
68	0x3fc1bd7e	1.5135953
69	0x3d9fe954	0.07808176
70	0x3da6dc06	0.08147435
71	0xbc9b42e1	-0.018952789
72	0xbe00ea0c	-0.12589282
73	0x3d29e046	0.04147365
74	0x3fd3f2a6	1.6558425
75	0x3dc99be2	0.098441854
76	0x3dbe7112	0.0929891
77	0xbd102b80	-0.035197735
78	0x3e85b933	0.26117858
79	0x3c718274	0.014740575
80	0x3da0a32f	0.07843625
81	0x3fc1115c	1.5083423
82	0xba9a2d80	-0.0011762828
83	0xbdeaed7c	-0.11471078
84	0x3dbdb8a2	0.092637315
85	0x3d861c83	0.06548407
86	0x3fc77228	1.5581713
87	0x3f38f35a	0.72246325
88	0x3e142128	0.14465773
89	0xbd8502c4	-0.06494668
90	0xbdaa88ee	-0.083268985
91	0xbcdb3968	-0.026760772
92	0xbd59ebef	-0.05320352
93	0x3e08da64	0.1336456
94	0xbd25bf24	-0.04046549
95	0x3df0634f	0.117376916
96	0xbd600f1d	-0.054701913
97	0xbefdd06d	-0.4957308
98	0x3dcf633c	0.10126349
99	0xbcce21fc	-0.02516269
100	0xbbb0730f	-0.00538481
101	0xbc76ee35	-0.015071441
102	0xbee09281	-0.43861774
103	0x3da99594	0.08280483
104	0xbeb79c9f	-0.3586168
105	0xbf192881	-0.5982743
106	0x3dee0769	0.11622507
107	0x3d68e4c0	0.056858778
108	0x3e0aa435	0.13539203
109	0x3e47cdac	0.19512051
110	0xbe617e68	-0.22020876
111	0xbbc65357	-0.0060524154
112	0x3e051a00	0.129982
113	0xbe5cf13f	-0.21576403
114	0xba52e600	-0.0008045137
115	0xbd4a7024	-0.049423352
116	0x3ca5d978	0.020245299
117	0x3c0ac27e	0.008469222
118	0xbaf1a820	-0.0018436946
119	0x3e18abb7	0.14909254
120	0xbd16adf5	-0.036786992
121	0xbd9b5202	-0.07584001
122	0x3dfaf9ba	0.12254663
123	0x3d5639a5	0.052301068
124	0x3e086997	0.1332153
125	0x3e397124	0.18109566
126	0x3d912c94	0.07088581
127	0x3de5745d	0.11203835
128	0x3f65f981	0.8983384
129	0x3f2898f5	0.65858394
130	0x3c9a5478	0.018839106
131	0x3e2513a9	0.16120781
132	0x3f2c1378	0.67217207
133	0xbc302e3d	-0.010753212
134	0x3ed5b6e9	0.41741112
135	0xbcdf0862	-0.027225677
136	0x3f16ae6b	0.5885989
137	0x3f345f3f	0.70457834
138	0x3f2c7b6d	0.6737583
139	0x3a38a600	0.0007043779
140	0x37590ebf	1.2937641e-05
141	0xbd51ae1a	-0.051191427
142	0x3f8dc8b0	1.107687
143	0x3e02c873	0.12771778
144	0xbbb226a8	-0.005436737
145	0x3f61555f	0.8802089
146	0x3d8f0d3e	0.069849476
147	0xbd745fcc	-0.05966167
148	0xba921180	-0.0011144131
149	0x3e3d028f	0.18458007
150	0x3f0c0f16	0.5471052
151	0x3f82e337	1.022559
152	0x3ca4ff5a	0.020141292
153	0xbde40d3e	-0.11135338
154	0x3bb8d740	0.005640894
155	0x3cc7d6ca	0.024394412
156	0x3ca1f79e	0.019771393
157	0x3f5eaf3e	0.8698615
158	0xbdcb5102	-0.099275604
159	0x3e2ceb4e	0.16886637
160	0x3e162fdf	0.14666699
161	0x3f13efaf	0.57787603
162	0xbdc62f20	-0.09676957
163	0x3c90bda1	0.017668547
164	0x3e566456	0.20936713
165	0xbe079b78	-0.132429
166	0x3f27ce58	0.6554923
167	0x3d7554c0	0.059895277
168	0x3f384d08	0.7199254
169	0x3f2e0615	0.6797803
170	0x3e98675b	0.29766354
171	0xbb49b140	-0.0030775815
172	0xbd13961d	-0.03603183
173	0xbda147f0	-0.07875049
174	0x3f52619d	0.82180196
175	0xbd084487	-0.033268478
176	0x3b9ecfda	0.004846555
177	0x3e52451b	0.20534174
178	0xbd939d88	-0.07207781
179	0x3d859bc8	0.065238535
180	0x3d99f9e8	0.07518369
181	0x3d988a5e	0.074482664
182	0x3e3c2420	0.18373156
183	0x3e854057	0.2602565
184	0xbd3cd413	-0.046100687
185	0xbdb1584a	-0.08659418
186	0x3c741c70	0.014899358
187	0xbc4c243f	-0.012459814
188	0xbdf10632	-0.1176876
189	0x3e788440	0.242692
190	0xbde9b084	-0.11410621
191	0xbdaa548a	-0.08316906
192	0x3f323287	0.6960835
193	0x3df4bf68	0.1195057
194	0xbd8ab5cc	-0.06772956
195	0x3d0123d8	0.031528324
196	0x3d70cde3	0.0587901
197	0x3e524c80	0.20536995
198	0xbda0fdef	-0.07860934
199	0x3e220c9e	0.15825126
200	0x3c832009	0.016006486
201	0x3e07f444	0.13276774
202	0x3f4e5440	0.80597305
203	0x3cb73ce0	0.022367895
204	0x3e57d549	0.21077456
205	0x3e177f9f	0.14794777
206	0xbf573ee7	-0.84080356
207	0xbc980fcc	-0.01856222
208	0x3ce9d75f	0.02854508
209	0x3f0b8643	0.5450174
210	0x3debf27c	0.115208596
211	0x3df58a64	0.119892865
212	0xbd857b24	-0.06517628
213	0xbc42dd11	-0.011893527
214	0x3ead10a3	0.33801755
215	0xbf89a232	-1.0752623
216	0x3cf5ab83	0.02998901
217	0xbcc89cf0	-0.024488896
218	0x3da4e4aa	0.08051427
219	0x3e625ae0	0.22104979
220	0xbd7b9953	-0.06142552
221	0xbf8dcb75	-1.1077715
222	0x3ccf90c0	0.025337577
223	0x3d78196d	0.060571123
224	0x3eac847a	0.33694822
225	0x3f04d59b	0.51888436
226	0xbda931be	-0.08261441
227	0xbdaa9ad6	-0.08330314
228	0x3e38d582	0.18050197
229	0x3e24080c	0.16018695
230	0x3ee63269	0.44960335
231	0x3d753d05	0.059872646
232	0x3f061b9e	0.5238589
233	0x3f1987ca	0.5997282
234	0x3ecee13f	0.40406224
235	0xbd9c331c	-0.07626936
236	0xbd89da9e	-0.06731151
237	0x3d4bf609	0.049795184
238	0x3d7338b7	0.05938026
239	0x3c59b886	0.013288623
240	0x3d2fca2e	0.042917423
241	0x3f1a3371	0.60234743
242	0xbd2f7658	-0.04283747
243	0x3db461ee	0.08807741
244	0x3a275000	0.00063824654
245	0x3d997177	0.07492345
246	0x3e80ecc9	0.25180653
247	0xbe2b4f56	-0.16729483
248	0xbd3bb4ae	-0.045826606
249	0x3d4ea35c	0.05044876
250	0x3d19072c	0.037360355
251	0x3cf7ce1b	0.030249646
252	0x3e016f88	0.12640202
253	0xbe5738ad	-0.21017714
254	0x3dfdc42a	0.12390931
255	0x3d762a92	0.060099192

lstm.weight_hh_l0 f4 [256, 64]
0	0xbc7f2c77	-0.015574566
1	0x3da408f5	0.08009521
2	0xbe722924	-0.23648506
3	0x3d243a11	0.04009444
4	0x3b748727	0.0037312002
5	0x3d17dde6	0.037076853
6	0xbdc0799f	-0.093981974
7	0xbe5b5f01	-0.2142296
8	0x3ede55aa	0.43424731
9	0x3e92bcb7	0.28659603
10	0xbe181105	-0.14850242
11	0x3ea7f707	0.32805654
12	0x3e45ea6a	0.19327703
13	0x3e2303d7	0.15919434
14	0xbdf19447	-0.1179586
15	0x3d16e069	0.036835108
16	0xbe0ca46d	-0.13734598
17	0xbdd438b9	-0.103623815
18	0x3e8d6405	0.2761537
19	0xbea298ad	-0.31757107
20	0x3a065af1	0.00051252457
21	0xbd755203	-0.059892666
22	0x3d07d50b	0.033162158
23	0xbde85826	-0.11344938
24	0x3e19fd07	0.15037929
25	0x3d882edd	0.066495635
26	0x3e0cc976	0.13748726
27	0x3d7024a3	0.05862869
28	0x3e70a396	0.23499903
29	0x3e63a90a	0.22232452
30	0xbd889889	-0.06669719
31	0x3e358b37	0.17728887
32	0x3d478e8a	0.04871992
33	0x3d74c78e	0.059760623
34	0xbe057ca9	-0.13035835
35	0xbe21aba7	-0.15788136
36	0x3eaee200	0.341568
37	0xbe455f9f	-0.19274758
38	0xbdfac5c3	-0.12244751
39	0xbe510383	-0.20411496
40	0x3df24d93	0.11831202
41	0x3dde442a	0.10852845
42	0xbea9c419	-0.33157423
43	0x3e8a5493	0.2701765
44	0x3dd7f27b	0.10544296
45	0xbd9d5f57	-0.076842
46	0x3df2dedb	0.118589126
47	0xbe12ba93	-0.14328985
48	0xbe280277	-0.1640719
49	0x3e3babea	0.18327299
50	0x3e856f23	0.26061353
51	0xbe2cf4e6	-0.16890296
52	0x3dce65cc	0.1007801
53	0xbe234c7e	-0.15947148
54	0x3e3e021a	0.18555489
55	0x3e432312	0.19056347
56	0x3e4d84c7	0.20070182
57	0xbf0ee53c	-0.55818534
58	0xbd765c98	-0.060146898
59	0x3e69f101	0.22845842
60	0x3a3972f1	0.00070743175
61	0x3e59a11a	0.21252862
62	0xbdaf2aa0	-0.08553052
63	0x3efa73f3	0.48916587
64	0xbec55bb1	-0.38546517
65	0x3e391000	0.1807251
66	0xbe7bd6de	-0.24593684
67	0x3d13f50d	0.03612237
68	0x3ecbeff8	0.3983152
69	0x3e52d1f5	0.20587905
70	0x3ec3a713	0.38213405
71	0xbe603000	-0.2189331
72	0x3ed1f32a	0.41005832
73	0x3e32ed7b	0.17473404
74	0xbe6853b0	-0.22688174
75	0x3ebaad60	0.364604
76	0x3e41b2c5	0.18915851
77	0x3e9db0cb	0.30798945
78	0xbea7119a	-0.32630616
79	0x3e96ee1a	0.29478532
80	0xbe83a7e9	-0.25714043
81	0xbe28f6e7	-0.16500436
82	0x3f1592e8	0.58427286
83	0xbd96e8f9	-0.07368655
84	0x3ecdf86a	0.40228587
85	0x3eacf53f	0.33780858
86	0xbc945db6	-0.018111091
87	0xbecb57d0	-0.39715433
88	0x3ebe87c6	0.37212962
89	0x3db56969	0.08857996
90	0xbf1bbb5d	-0.6083277
91	0x3e9c1567	0.3048508
92	0x3e5d76b6	0.21627316
93	0x3e829ca8	0.25510144
94	0xbea52763	-0.32256612
95	0x3e8d6d1c	0.27622306
96	0xbe3dff15	-0.18554337
97	0x3e55dfcd	0.20886154
98	0xbe480918	-0.19534719
99	0xbe39a871	-0.18130662
100	0x3ea92754	0.33037817
101	0xbeb1826b	-0.34669814
102	0xbe2b4bbb	-0.16728108
103	0xbe314203	-0.17310338
104	0x3e671c50	0.22569394
105	0x3e8dedfc	0.2772063
106	0xbe9539ec	-0.29145753
107	0x3eb85b94	0.3600737
108	0x3e163a6f	0.14670728
109	0xbe12af1c	-0.14324611
110	0x3e15c1d1	0.14624716
111	0xbe9e2a17	-0.30891487
112	0xbe28c30d	-0.16480656
113	0x3ec0cef0	0.3765788
114	0x3ecd6d7d	0.40122595
115	0xbe78b365	-0.24287184
116	0x3e66c3ce	0.22535631
117	0xbed0905e	-0.40735143
118	0x3e61a32c	0.22034901
119	0x3ebad276	0.36488694
120	0x3ec7071d	0.38872615
121	0x3ed9a8cf	0.42511603
122	0xbed6da2f	-0.41963336
123	0x3e107aaa	0.14109293
124	0xbe908194	-0.2822386
125	0x3e917fb6	0.28417748
126	0xbef0ce57	-0.47032425
127	0x3edaa25b	0.42701992
128	0xbd256ba6	-0.040385865
129	0x3db9c47f	0.09070682
130	0xbe8e0928	-0.2774136
131	0x3e3b0209	0.18262495
132	0x3dd843c0	0.10559797
133	0x3d91d68b	0.07120999
134	0xbd63f1f8	-0.05565068
135	0xbb4dca82	-0.0031401222
136	0x3e55e2ee	0.20887348
137	0x3db2e722	0.08735491
138	0xbe33e542	-0.17567924
139	0x3e828b1d	0.2549676
140	0x3e65e892	0.22452
141	0x3da293cf	0.079383485
142	0xbc769bf6	-0.015051832
143	0x3e0fa573	0.14027958
144	0xbd1e403f	-0.03863549
145	0xbd80ac2c	-0.06282839
146	0x3dba65fa	0.09101482
147	0x3c16966e	0.009191139
148	0x3db8d3df	0.09024786
149	0x3e088f53	0.13335924
150	0x3df53990	0.1197387
151	0xbd132db9	-0.035932276
152	0xbd796cbc	-0.060894713
153	0x3d7aa95b	0.061196666
154	0x3d438dea	0.04774276
155	0x3d912209	0.0708657
156	0x3e01d72b	0.12679736
157	0xbc817e0d	-0.015807176
158	0xbd677774	-0.056510404
159	0x3da539b9	0.0806765
160	0x3dc477e2	0.09593178
161	0x3dd6622c	0.104679435
162	0xbe7c71d7	-0.24652801
163	0xbdec4b3c	-0.11537787
164	0x3e6b2fe6	0.2296749
165	0xbe1c4729	-0.1526152
166	0xbd3fbacd	-0.046809006
167	0xbd030f61	-0.03199709
168	0x3e828448	0.25491548
169	0x3df241ef	0.11828982
170	0xbe8a819e	-0.27052015
171	0x3e38c9d5	0.18045743
172	0x3e7e133e	0.24812028
173	0xbe8564ad	-0.26053372
174	0x3e2cab2c	0.16862172
175	0xbe0f2517	-0.13978992
176	0xbdaf4c43	-0.08559468
177	0x3e22898b	0.15872781
178	0x3e42bf74	0.19018346
179	0xbe96be2f	-0.29441974
180	0x3e095783	0.1341229
181	0xbd90ec38	-0.07076305
182	0x3e007f08	0.12548459
183	0x3d1b36c9	0.037894044
184	0xbd6ae301	-0.057345394
185	0xbd7b3b0a	-0.0613356
186	0xbe4af270	-0.19819045
187	0x3e905b56	0.28194684
188	0xbda3abb1	-0.07991732
189	0x3e1d240a	0.15345779
190	0xbeac27ff	-0.33624265
191	0x3c8cc165	0.017182061
192	0xbe738157	-0.23779808
193	0x3e46b5d5	0.19405301
194	0xbd9b5975	-0.07585422
195	0xbd581aeb	-0.052760046
196	0x3e5eeec2	0.21770766
197	0x3e046f3d	0.12933059
198	0x3f1da504	0.6157992
199	0xbe397b0d	-0.18113346
200	0x3e01b25e	0.12665698
201	0xbe13a461	-0.14418174
202	0xbd3d1cc5	-0.046170015
203	0x3e4999b2	0.19687536
204	0x3cff6266	0.03117485
205	0x3bd76166	0.00657289
206	0xbecc075e	-0.3984937
207	0x3d27e09b	0.040985685
208	0xbe1d57ab	-0.15365474
209	0xb93c7e76	-0.00017976188
210	0x3e1f4f42	0.15557578
211	0x3e58881e	0.21145675
212	0x3e998ba1	0.2998934
213	0x3ce9e2e0	0.028550565
214	0xbe2be24d	-0.16785546
215	0xbe471b77	-0.19444071
216	0x3e3a2681	0.1817875
217	0xbe273448	-0.16328537
218	0xbf0fde87	-0.56198925
219	0x3e2eb22e	0.17060158
220	0x3e7828ff	0.24234389
221	0xbea3d96f	-0.32001826
222	0x3c482f65	0.012218331
223	0x3d64b319	0.055834863
224	0xbe83789c	-0.25677955
225	0x3d81e29c	0.063420504
226	0xbe5e44ab	-0.21705882
227	0xbe0e0865	-0.1387039
228	0x3d573e26	0.052549504
229	0xbe85d447	-0.26138517
230	0x3d8f5f2d	0.07000575
231	0xbb803de7	-0.0039136293
232	0x3dc6c03c	0.097046345
233	0x3d8af417	0.06784838
234	0xbdd15573	-0.10221376
235	0x3e01d368	0.12678301
236	0x3df70268	0.12061006
237	0xbc0e5167	-0.0086864
238	0xbd077d34	-0.033078387
239	0xbd016a42	-0.031595476
240	0xbd214bcd	-0.03937893
241	0x3e8dda3a	0.27705556
242	0x3da27907	0.079332404
243	0xbe868662	-0.262744
244	0x3e6e0a41	0.23246099
245	0xbe233bc0	-0.15940762
246	0xbd35e1b4	-0.0444047
247	0x3eb4383e	0.3519916
248	0x3e34a078	0.17639339
249	0x3f3f9e5d	0.7485102
250	0xbd8129e1	-0.06306816
251	0x3d58e5d0	0.05295354
252	0x3d101c41	0.035183195
253	0x3e16ad82	0.14714625
254	0xbdeb8932	-0.11500777
255	0x3e956cfe	0.29184717

lstm.bias_ih_l0 f4 [256]
0	0x3d2655df	0.040609237
1	0x3dc18a0e	0.0945016
2	0x3e13e2b4	0.14441949
3	0x3e3ae908	0.18252957
4	0xbca2ba15	-0.019864121
5	0x3dbb6dff	0.091518395
6	0x3d9c5fb8	0.076354444
7	0x3e0ce3d7	0.13758789
8	0x3e3694c5	0.17830189
9	0x3dccf522	0.10007693
10	0xbdbeddeb	-0.09319671
11	0xbcfd2b66	-0.030904483
12	0xbde1f7b5	-0.110335745
13	0x3df0c705	0.1175671
14	0x3e80cf3f	0.25158116
15	0x3cb9b750	0.022670418
16	0x3c2f427c	0.010697003
17	0xbd152ba5	-0.036418576
18	0x3c97b7f8	0.01852034
19	0x3d6be775	0.05759378
20	0x3d8d1816	0.0688936
21	0x3d108bfa	0.035289742
22	0x3e182167	0.14856492
23	0x3dfb57b3	0.12272587
24	0x3c40bbe1	0.011763544
25	0xbd4613d4	-0.048358753
26	0x3cae7096	0.02129392
27	0x3dc78303	0.097417854
28	0x3e0f4a96	0.13993296
29	0xbd5f0c83	-0.05445529
30	0xbd58f7ae	-0.05297058
31	0x3cf70bbd	0.030156964
32	0x3d7aa5ac	0.061193153
33	0x3e12d42a	0.14338747
34	0x3ddf6dac	0.1090959
35	0xbddfedef	-0.10934054
36	0xbd6b890e	-0.057503752
37	0x3e100cd0	0.14067388
38	0x3e37c070	0.17944503
39	0xbd2fcfa7	-0.042922642
40	0x3d90b63b	0.07066008
41	0xbd2a3dca	-0.041562833
42	0x3dfb3d6b	0.12267574
43	0x3e21bfd8	0.15795839
44	0x3d3abd8d	0.045590926
45	0xbd4bf440	-0.04979348
46	0xbdab3246	-0.08359198
47	0xbd20e964	-0.03928508
48	0xbd3079d4	-0.043084934
49	0x3e325979	0.17416944
50	0xbb780a82	-0.003784806
51	0x3cda3243	0.026635295
52	0x3de543ef	0.11194598
53	0x3cf64ff8	0.030067429
54	0x3e14de67	0.14537965
55	0x3e249890	0.16073823
56	0x3e0f07f8	0.13967884
57	0xbd45c71c	-0.04828559
58	0x3dbd28a6	0.09236269
59	0x3dd69a95	0.10478703
60	0x3d141527	0.036152985
61	0x3d6d8156	0.057984672
62	0x3c0eeedd	0.008723942
63	0x3e6855c0	0.22688961
64	0x3e0e4b9e	0.13896033
65	0xbe19b031	-0.15008618
66	0x3e31fcda	0.17381611
67	0x3dae0b8e	0.08498298
68	0x393d5231	0.00018055063
69	0x3b1276b7	0.0022348592
70	0xbdb1d746	-0.08683638
71	0x3dbbb27a	0.09164901
72	0x3d4658e2	0.04842461
73	0x3d422579	0.047399018
74	0xbdb1a7f6	-0.08674614
75	0x3c84d416	0.016214412
76	0x3e06c029	0.13159241
77	0xbd9030c2	-0.0704055
78	0x3da42e5b	0.08016654
79	0xbdc12bfa	-0.09432216
80	0x3dc64f6d	0.09683118
81	0xbdc687ba	-0.096938565
82	0x3dcce32b	0.10004266
83	0x3c9b7919	0.018978642
84	0xbc995a84	-0.018719919
85	0xbdf95fd1	-0.12176479
86	0x3e148610	0.14504266
87	0xbdab35e5	-0.08359889
88	0x3aa5f4f1	0.0012661499
89	0x3d605036	0.054763995
90	0x3da5e502	0.081003204
91	0xbdccdfac	-0.100035995
92	0x3defbe8d	0.117062666
93	0xbdcd24c0	-0.10016775
94	0x3d61d7cb	0.055137437
95	0x3d18ea7d	0.037333
96	0xbc93cdd3	-0.01804248
97	0x3d185bd3	0.037196945
98	0x3cb9c77b	0.022678128
99	0xbcf3b66a	-0.029750068
100	0x3e8057f1	0.25067094
101	0xbdc1ece6	-0.09469013
102	0x3de95c63	0.113945745
103	0x3e02c30a	0.12769714
104	0xbd806ef9	-0.06271166
105	0xbd077912	-0.033074446
106	0x3d7fc267	0.062441256
107	0x3dfb1b2f	0.12261044
108	0x3b7f07e9	0.0038914627
109	0xbdb3034f	-0.087408654
110	0x3d5ad64a	0.05342702
111	0x3e06b3a7	0.1315447
112	0x3df9a854	0.12190309
113	0xbccc3302	-0.024926666
114	0x3e105922	0.14096501
115	0xbd545eaf	-0.05184811
116	0xbc510796	-0.012758156
117	0x3c86082f	0.016361324
118	0xbd4a165d	-0.049337734
119	0x3d470922	0.048592694
120	0xbd28bb4f	-0.041194256
121	0xbb1ddec4	-0.0024089077
122	0xbdcc657e	-0.099802956
123	0x3e24736c	0.16059655
124	0x3d1d6b81	0.0384326
125	0xbc215876	-0.009847751
126	0xbd537775	-0.051627595
127	0x3e5751fc	0.21027368
128	0xbdcab80b	-0.09898385
129	0xbd978795	-0.07398907
130	0xbd993a48	-0.074818194
131	0x3df38763	0.11891057
132	0x3c7a692c	0.015283864
133	0x3dcf5ebc	0.10125491
134	0xbdf568f8	-0.11982912
135	0xbdfc837c	-0.12329766
136	0xbdc4cbe2	-0.096092
137	0xbc5741d4	-0.013138253
138	0x3c21a021	0.009864838
139	0x3c0dfdcc	0.008666467
140	0x3d999c69	0.07500536
141	0x3d7e18db	0.062035423
142	0xbc1d7ba2	-0.009611996
143	0x3d48971e	0.04897224
144	0xbdbbb61c	-0.09165594
145	0xbd88b204	-0.06674579
146	0xbd9b7aaf	-0.075917594
147	0xbd2bf4ea	-0.041981615
148	0x3d2637b5	0.04058047
149	0x3d93c7f6	0.07215874
150	0x3d98ad7f	0.07454967
151	0x3dc4147a	0.09574218
152	0x3d4b32e2	0.049609073
153	0x3da77db4	0.08178273
154	0x3d73f787	0.059562232
155	0xbdfd6c6a	-0.12374194
156	0x3d2d3e75	0.04229589
157	0xbdef66f8	-0.116895616
158	0x3daea17f	0.08526897
159	0x3b899736	0.004198934
160	0x3d4409a6	0.047860764
161	0x3d7e6d94	0.06211622
162	0xbdbc4db9	-0.09194512
163	0xbd7008e0	-0.058602214
164	0xbcf7a635	-0.03023062
165	0xbdb32c3c	-0.087486714
166	0xbd9a1259	-0.07523031
167	0xbd97c1ca	-0.07410009
168	0xbddba2d8	-0.10724419
169	0xbc391450	-0.011296347
170	0xbc13a676	-0.009011855
171	0x3b889769	0.00416844
172	0x3d7e2349	0.06204537
173	0xbcae07a2	-0.021243874
174	0x3d86e6f0	0.065870166
175	0xbdd09474	-0.10184565
176	0x3ca9d0aa	0.020729382
177	0x3bb084ed	0.0053869397
178	0x3df41f4f	0.11920034
179	0xbbb47f0f	-0.0055083106
180	0x3ddaa319	0.1067564
181	0x3d45ab47	0.048259046
182	0x3ce8da49	0.028424399
183	0xbe0b74f0	-0.13618827
184	0x3ccc17b9	0.024913656
185	0x3b6ef3a3	0.0036461137
186	0xbb911cc1	-0.0044284766
187	0x3de3f9c5	0.11131624
188	0xbd62c14a	-0.055360116
189	0xbc8bcd1a	-0.017065573
190	0xbdab7d77	-0.0837354
191	0xbdfc395e	-0.123156294
192	0x3de6d01d	0.11270163
193	0x3e602da3	0.21892409
194	0x3d53e492	0.051731654
195	0x3e45f54c	0.19331855
196	0x3d990397	0.07471388
197	0x3e058388	0.13038456
198	0xbcd8a060	-0.02644366
199	0x3e06937c	0.13142198
200	0xbd052148	-0.032502443
201	0x3d04b5c9	0.032399926
202	0x3c483251	0.012219028
203	0x3e3cf1b4	0.18451577
204	0xbdf41346	-0.119177386
205	0xbcc1566c	-0.02360078
206	0x3e5ad0ce	0.21368715
207	0xbbecd373	-0.007227355
208	0x3c52a1f0	0.012855992
209	0x3defa138	0.11700672
210	0x3deb3534	0.11484757
211	0xbc44722e	-0.011990113
212	0x3da5e873	0.08100977
213	0xbd30113d	-0.04298519
214	0x3cb602ed	0.022218192
215	0xbd07893c	-0.03308986
216	0xbc544353	-0.0129555045
217	0xbd3cf8c6	-0.046135686
218	0x3d167174	0.03672929
219	0xbd0ba803	-0.034095775
220	0x3ca9ffb5	0.020751813
221	0x3c829285	0.015939007
222	0xbd9137b0	-0.070907
223	0x3d34a2cf	0.04410058
224	0x3e15e618	0.14638555
225	0x3dc9be1a	0.09850712
226	0xbda39d93	-0.07989039
227	0x3e013847	0.12619124
228	0x3d088c62	0.033337004
229	0xbd36b823	-0.0446092
230	0x3d951996	0.07280271
231	0x3dcbc312	0.09949316
232	0x3e1ec4c1	0.15504743
233	0x3db89ee0	0.09014678
234	0x3d99b69a	0.075055316
235	0x3e15f3f6	0.14643845
236	0x3dd37648	0.10325295
237	0x3d6bb94d	0.057549763
238	0xbb3bfab5	-0.0028683369
239	0xbd0aed99	-0.033917997
240	0xbd098575	-0.03357454
241	0x3d8d0deb	0.0688742
242	0x3dbe084f	0.092789285
243	0x3dd3e269	0.10345919
244	0x3d6e9f4a	0.05825738
245	0x3e1b3f9c	0.15160984
246	0x3bd1de62	0.006404684
247	0xbaa94cd6	-0.0012916576
248	0x3e7abc05	0.24485786
249	0x3e2d35a1	0.16914989
250	0x3cdc2213	0.026871717
251	0x3ddcdaff	0.10783958
252	0x3db2a636	0.087231085
253	0x3d63dc3c	0.055629954
254	0xbcf901a7	-0.030396296
255	0x3e86d933	0.26337585

lstm.bias_hh_l0 f4 [256]
0	0x3d9c7fb9	0.07641549
1	0x3e876512	0.26444298
2	0x3e0dc931	0.1384628
3	0x3d084bad	0.033275295
4	0x3e171d99	0.14757384
5	0x3dd42336	0.103582785
6	0x3d0f4c3d	0.034984816
7	0x3d426294	0.047457293
8	0x3cfb5d95	0.030684272
9	0x3d76f1af	0.06028908
10	0xbdf0fd43	-0.11767056
11	0x3d8a31ca	0.06747778
12	0x3da750ee	0.08169733
13	0x3d1098c3	0.035301935
14	0x3e09b42c	0.13447636
15	0xbdefa1d0	-0.11700785
16	0x3d74f934	0.05980797
17	0xbdab4708	-0.083631575
18	0x3e633577	0.22188364
19	0x3be5c1a9	0.0070116115
20	0x3da6730d	0.08127413
21	0x3ddb4b9e	0.10707782
22	0xbd7c6506	-0.06161978
23	0x3b2eb0d0	0.0026655681
24	0x3b7a9f04	0.0038241753
25	0x3bc08793	0.0058755367
26	0x3d03ff56	0.03222593
27	0x3e25cd8f	0.16191696
28	0x3d368cea	0.04456798
29	0xbdc4cba8	-0.09609157
30	0xbd7b75fb	-0.06139181
31	0xbd8a193b	-0.067430936
32	0x3dfad3e3	0.122474454
33	0xbd4eb57d	-0.05046605
34	0xbd7577f3	-0.059928846
35	0x3d3a0db8	0.04542324
36	0x3e2ee295	0.17078622
37	0x3da51df7	0.08062356
38	0xbc7b3cb0	-0.015334293
39	0x3d6b3fc6	0.057433866
40	0x3dafe6fa	0.08588977
41	0xbdab93c3	-0.08377793
42	0x3bae4a0a	0.0053188847
43	0x3da417fd	0.08012388
44	0x3c3daff8	0.011577599
45	0xbce2a295	-0.027665416
46	0xbb841bcf	-0.0040316354
47	0xbd0d1a5f	-0.034448978
48	0x3dbbac5a	0.09163733
49	0x3e0cf783	0.13766293
50	0x3d69daa9	0.057093296
51	0xbd8db1b8	-0.06918663
52	0x3e0d48d4	0.13797313
53	0xbd29968f	-0.04140335
54	0x3df6c4b6	0.120492384
55	0x3cb12a30	0.021626562
56	0x3e1a3b36	0.1506165
57	0x3cbd33b4	0.023095943
58	0x3d6e56a9	0.058188114
59	0x3e0d38f0	0.13791251
60	0xbd47db3c	-0.048793063
61	0x3d44bff6	0.04803463
62	0xbd088190	-0.033326685
63	0x3e5087fa	0.20364371
64	0xbcd7fc2c	-0.026365362
65	0x3cf54cee	0.02994391
66	0x3e3a7117	0.18207203
67	0xbd10d959	-0.03536353
68	0x3d86229a	0.065495685
69	0xbd9d9d0b	-0.07695969
70	0x3d3dfb5a	0.046382286
71	0xbd1b146e	-0.03786128
72	0x3e37fbfc	0.17967218
73	0x3d776f95	0.060409147
74	0xbca87d7c	-0.020567648
75	0x3e4076c8	0.18795311
76	0xbdafb34a	-0.085791185
77	0xbc832180	-0.016007185
78	0x3bf413cc	0.007448649
79	0xbdb6501f	-0.08902001
80	0x3bcf1214	0.0063192938
81	0x3dc8d248	0.09805733
82	0x3e479f07	0.19494258
83	0xbd240047	-0.040039327
84	0xba026e59	-0.00049755495
85	0x3defab11	0.1170255
86	0x3cf72688	0.03016974
87	0x3ad37177	0.0016131838
88	0xbe19e83b	-0.15029995
89	0xbdabbeea	-0.08386023
90	0xbd403b8b	-0.046931785
91	0xbe1e118b	-0.1543638
92	0x3e2013ea	0.15632597
93	0xbdb99dfe	-0.09063338
94	0x3da7f8ef	0.08201777
95	0xbdb2d785	-0.08732513
96	0xbd0f3449	-0.034961972
97	0xbb999138	-0.004686501
98	0x3d6b5859	0.0574573
99	0x3e0ce6a0	0.13759851
100	0x3e10a682	0.14126018
101	0x3b5d1caa	0.003373901
102	0xbbd6cbab	-0.006555041
103	0x3e03052d	0.12794943
104	0xbcb301ae	-0.021851387
105	0x3dd245e4	0.10267237
106	0x3e31bc0d	0.17356892
107	0x3d14b960	0.0363096
108	0x3ba63624	0.005072372
109	0xbbe2a797	-0.006916951
110	0xbcb9b2f4	-0.02266834
111	0x3acbc996	0.0015547748
112	0x3cc9e1bc	0.024643771
113	0x3cfb8d28	0.030706957
114	0x3d1185ef	0.03552812
115	0x3ddc4c77	0.10756772
116	0x3e158613	0.14601927
117	0x3d5d560e	0.054037146
118	0xbcbbe285	-0.022935161
119	0x3c9e4811	0.019321473
120	0xbd2d929d	-0.04237615
121	0xbdf82929	-0.12117226
122	0xbcffc039	-0.031219589
123	0x3e089435	0.13337786
124	0x3dcae861	0.09907604
125	0x3d360c3f	0.044445273
126	0xbb255dec	-0.0025232984
127	0x3e095fad	0.13415404
128	0x3cbda122	0.023148123
129	0x3d21e485	0.039524574
130	0xbc38232f	-0.011238857
131	0xbdc3518d	-0.09537039
132	0x3d4746d4	0.04865153
133	0x3dceabe1	0.10091377
134	0x3d25584a	0.040367402
135	0xbbb4fd46	-0.0055233566
136	0xbb4d5db2	-0.0031336364
137	0x3d8f9436	0.07010691
138	0xbdd35566	-0.10319023
139	0xbd40151d	-0.046895135
140	0x3dd0f68d	0.10203276
141	0x3d87a1a3	0.06622627
142	0x3cdcadaa	0.026938278
143	0x3da2d710	0.07951176
144	0x3c14512a	0.009052554
145	0xbc8d5af4	-0.017255284
146	0x3dabe04a	0.08392389
147	0x3c3fdd93	0.011710542
148	0x3d1b8a09	0.037973437
149	0x3ceb9a3d	0.02876007
150	0x3db81488	0.08988291
151	0xbdccda3f	-0.10002565
152	0x3c9e8a18	0.019352958
153	0xbd757b87	-0.059932258
154	0x3c686d3f	0.014186203
155	0xbd0d0f67	-0.034438517
156	0x3b9ef0ea	0.0048504965
157	0x3c78e67c	0.0151916705
158	0xbdee7048	-0.1164251
159	0x3d330f3c	0.0437157
160	0xbdd55aa9	-0.10417683
161	0xbcf8b07e	-0.030357596
162	0x3c647a78	0.013945214
163	0x3c86e8bd	0.0164684
164	0x3c1b01b6	0.009460857
165	0x3dd475ca	0.10374029
166	0x3d6d9888	0.058006793
167	0xbd7d0015	-0.061767656
168	0x3d62fc0b	0.05541615
169	0x3de878cb	0.113511644
170	0x3d1c52c3	0.038164865
171	0xbc22b82a	-0.009931603
172	0x3c81f948	0.015865937
173	0x3cf5091a	0.029911567
174	0x3d831687	0.06400781
175	0xbc7a52aa	-0.015278498
176	0xbd91b15b	-0.07113906
177	0xbb6182f1	-0.0034410323
178	0x3b92ad49	0.0044762236
179	0xba666f72	-0.00087904104
180	0x3db0bdc2	0.086299434
181	0xbd890361	-0.066900976
182	0xbc878d01	-0.016546728
183	0x3c8693b5	0.016427854
184	0xbc19a857	-0.009378514
185	0xbd615b14	-0.0550185
186	0xbd73496a	-0.059396185
187	0xbd6a9344	-0.05726935
188	0xbba6d2b3	-0.0050910353
189	0x3d9ae2fd	0.07562826
190	0xbc990f00	-0.01868391
191	0x3d21bc50	0.03948623
192	0x3da2b362	0.07944371
193	0x3e58f828	0.21188414
194	0x3da1dd33	0.079035185
195	0x3d9f332f	0.07773434
196	0x3dec4ee1	0.115384825
197	0x3dbf6879	0.093460985
198	0x3d84da34	0.064869314
199	0xbd082200	-0.03323555
200	0x3df00f6c	0.117216915
201	0x3da146c3	0.07874825
202	0x3db8495d	0.08998368
203	0x3c57f87a	0.0131818
204	0xbd53b2d0	-0.0516842
205	0x3d953952	0.072863236
206	0x3de70b4d	0.11281452
207	0xbd5b7be0	-0.053584933
208	0x3dce17f2	0.10063161
209	0xbdb5f1c8	-0.08884007
210	0xbd29805d	-0.041382182
211	0x3d1943d4	0.0374182
212	0xbcc323c0	-0.023820758
213	0xbd31507b	-0.043289643
214	0x3e29dd70	0.16588378
215	0x3e13d50c	0.1443674
216	0x3cac9c1c	0.021070533
217	0x3e1483d4	0.14503413
218	0x3e16b713	0.14718275
219	0x3d871449	0.06595666
220	0x3e0be715	0.1366237
221	0xbd997b2a	-0.07494195
222	0xbaf52bd6	-0.0018705081
223	0x3e38e842	0.1805735
224	0x3dc729f8	0.09724802
225	0x3ddf8403	0.10913851
226	0x3d959a9e	0.073048815
227	0xbda9136b	-0.08255657
228	0x3dea6ad5	0.11446158
229	0xbbe7ea1e	-0.0070774695
230	0x3e142e95	0.14470895
231	0x3dbc388e	0.091904745
232	0x3ce85c88	0.028364435
233	0xbd7c66e3	-0.061621558
234	0x3df58171	0.119875796
235	0x3d853148	0.0650354
236	0xbd9f6cbc	-0.07784411
237	0xbc152883	-0.009103897
238	0x3d1f142d	0.0388376
239	0x3ce1ac50	0.027547985
240	0x3d79c056	0.06097444
241	0xbd83253d	-0.06403587
242	0x3c4dfb61	0.01257214
243	0xbd74d288	-0.05977109
244	0x3e14269f	0.14467858
245	0x3e1a4c81	0.15068246
246	0xbdbd812c	-0.09253153
247	0x3da4c7f2	0.08045949
248	0x3e380eff	0.1797447
249	0x3c7bcb1a	0.015368247
250	0x3dd7453f	0.105112545
251	0x3cdc5615	0.026896516
252	0x3dc56bb8	0.09639686
253	0xbd310bf2	-0.043224283
254	0x3dcdb972	0.100451365
255	0x3e0d4cb2	0.13798788

fc.weight f4 [2, 64]
0	0x3e39aed3	0.18133096
1	0x3ef549de	0.4790792
2	0xbe4e9d79	-0.20177259
3	0xbea4b77b	-0.32171234
4	0xbd39c5e1	-0.045354728
5	0x3e5400e2	0.20703462
6	0xbe53cb25	-0.20682962
7	0x3df92ad7	0.12166374
8	0x3e1783ab	0.14796321
9	0xbe3870b4	-0.18011743
10	0xbe12aeef	-0.14324544
11	0x3e393dd4	0.18089992
12	0x3e3f63a7	0.18690358
13	0x3dc54f30	0.096342444
14	0x3f174d51	0.5910235
15	0xbe1c8762	-0.1528602
16	0xbe0fc584	-0.1404019
17	0x3e2a9bf3	0.16661052
18	0x3e8929c9	0.26789692
19	0x3f1d6cb9	0.6149402
20	0xbd663b2c	-0.056208774
21	0x3e230958	0.15921533
22	0x3ba8f229	0.005155821
23	0xbdaac245	-0.08337835
24	0x3e582aa4	0.21110016
25	0xbf01a03a	-0.5063511
26	0x3e08cc89	0.13359274
27	0xbf26d935	-0.6517518
28	0x3e8c79d6	0.27436703
29	0xbf351675	-0.7073739
30	0x3c8446e6	0.016147088
31	0xbe745ed0	-0.23864293
32	0xbe8a5c5c	-0.2702359
33	0xbdd7b7b2	-0.10533084
34	0xbdee4a2b	-0.1163524
35	0x3ce97c3b	0.02850162
36	0x3e7a97ab	0.24471919
37	0x3e1221ff	0.14270781
38	0x3deac671	0.11463631
39	0xbe471bb4	-0.19444162
40	0xbe98aa50	-0.29817438
41	0x3dd6b03c	0.10482833
42	0xbe4f2ce6	-0.20231971
43	0x3e78428b	0.24244134
44	0x3cdc08cf	0.026859669
45	0x3e724d83	0.23662381
46	0xbefe671f	-0.4968805
47	0xbe958148	-0.29200196
48	0xbd7fa2d7	-0.062411156
49	0xbea3f0d7	-0.32019684
50	0xbf5f8177	-0.8730692
51	0xbeb3f18b	-0.3514522
52	0x3e2b831f	0.16749237
53	0x3e3f05e0	0.18654585
54	0xbef8f7c3	-0.48626527
55	0xbd60a93a	-0.054848887
56	0xbeaae16f	-0.33375117
57	0xbe11dce3	-0.14244418
58	0xbe086250	-0.13318753
59	0xbc079bb5	-0.00827687
60	0x3ed60a36	0.41804665
61	0x3e29292e	0.16519615
62	0x3c28b91b	0.010298039
63	0xbe02a8d9	-0.12759723
64	0xbe983ced	-0.29733983
65	0xbf039a3a	-0.51407206
66	0x3ead309b	0.33826146
67	0x3e83b05f	0.25720498
68	0x3e182ecf	0.14861606
69	0xbe1d35e4	-0.15352589
70	0x3e7e531a	0.24836388
71	0xbcd2eaeb	-0.025746783
72	0xbca877c7	-0.020564927
73	0x3da1beee	0.07897745
74	0x3a1f8706	0.0006085489
75	0xbe802192	-0.25025612
76	0xbd36d5b0	-0.044637382
77	0xbe7d5d16	-0.2474254
78	0xbee5d2c1	-0.44887355
79	0x3da4b3c5	0.08042101
80	0x3e441e17	0.19152103
81	0xbcb34423	-0.021883076
82	0xbe3d3772	-0.18478182
83	0xbf06b402	-0.5261842
84	0xbdbcf040	-0.092255116
85	0xbdf427ba	-0.1192164
86	0xbd2c7f66	-0.042113684
87	0x3c4daee4	0.012553904
88	0xbe5ed22c	-0.21759862
89	0x3f0c4874	0.54798055
90	0xbd4f4d13	-0.050610613
91	0x3f2ca465	0.67438346
92	0xbe58cec7	-0.2117263
93	0x3f37fb3b	0.7186772
94	0x3e2632b6	0.16230282
95	0x3e939a87	0.28828833
96	0x3e51aca0	0.20476007
97	0xbc8cd7a2	-0.017192665
98	0x3d60db8b	0.054896872
99	0xbd9e388c	-0.07725629
100	0xbe93b5ca	-0.28849632
101	0xbdd8bbc4	-0.105826885
102	0xbd8708d9	-0.065934844
103	0x3e576949	0.21036257
104	0x3e8e7ffb	0.27832016
105	0xbe49c24e	-0.19703028
106	0x3e834996	0.2564208
107	0xbe8ed814	-0.2789923
108	0x3d48b808	0.04900363
109	0xbe87e58d	-0.2654232
110	0x3f0b1d0d	0.543412
111	0x3e402cb2	0.1876705
112	0x3e446266	0.19178161
113	0x3ea6d6e5	0.32585827
114	0x3f49fecf	0.7890443
115	0x3ea55891	0.32294133
116	0xbde780a4	-0.11303833
117	0xbe192736	-0.14956364
118	0x3eed9dfd	0.46409598
119	0x3c9ce4e4	0.019152112
120	0x3ee564ac	0.4480337
121	0x3c6b88a2	0.0143758375
122	0x3e0ce12d	0.13757773
123	0xbdf3ac3d	-0.11898086
124	0xbefc2fcc	-0.49255216
125	0xbe4853eb	-0.19563262
126	0x3e464d4e	0.19365427
127	0xbd9856fb	-0.07438465

fc.bias f4 [2]
0	0x3e8ff76d	0.28118458
1	0xbe81eac5	-0.25374427
